ggcnn/ckpt/epoch_0213_acc_0.6374.pth (torch, 275247 bytes, 20 tensors)

features.0.weight f4 [16, 1, 11, 11]
0	0x39f69661	0.00047032817
1	0xbd822b39	-0.063559
2	0xbd456932	-0.048196025
3	0xbccee74d	-0.025256777
4	0x3cfb87db	0.03070443
5	0x3d62b7c7	0.055351045
6	0x3d21dce2	0.03951729
7	0xbd555ca2	-0.052090295
8	0xbbb5c01b	-0.0055465824
9	0x3d476c55	0.048687298
10	0xbd293dff	-0.04131889
11	0xbd807e2a	-0.06274064
12	0xbd18acca	-0.03727416
13	0xbd65e604	-0.056127563
14	0x3c83388a	0.01601817
15	0xbd40917e	-0.047013752
16	0x3c86217b	0.016373387
17	0x3d0827f8	0.033241242
18	0xbd32e14f	-0.043671902
19	0x3cc41ec2	0.023940448
20	0xbd3a9641	-0.04555345
21	0x3bf1cdd5	0.0073792734
22	0x3cbe147c	0.023203127
23	0xbd882cb5	-0.06649152
24	0xbd9c5b54	-0.07634607
25	0x3c8e5ad2	0.01737729
26	0xbd2e483a	-0.04254935
27	0x3aee3b8d	0.0018175707
28	0x3d471d22	0.048611768
29	0x3d3d5322	0.04622186
30	0x3d18f732	0.03734512
31	0x3d2582fa	0.040408112
32	0xbbc91620	-0.0061366707
33	0x3ad08586	0.0015908934
34	0xbd7d2eb5	-0.06181212
35	0xbd0cc5aa	-0.034368195
36	0xbda7f8c7	-0.082017474
37	0x3bdeea7b	0.0068028546
38	0xbc35ee78	-0.011104219
39	0x3d2933f6	0.04130932
40	0xbcd9ed51	-0.02660242
41	0x3a6e750e	0.0009096422
42	0xbd80c690	-0.06287873
43	0x3cbcbe96	0.023040097
44	0xbd8e9116	-0.06961267
45	0x3c131be7	0.00897882
46	0x3c3fad2f	0.011699005
47	0xbd3a1a56	-0.045435272
48	0x3c79fbf9	0.015257829
49	0x3c862194	0.016373433
50	0xbd155212	-0.03645522
51	0xbca3ad91	-0.019980224
52	0xbc87aa01	-0.016560556
53	0xbd45befb	-0.048277836
54	0x3cc80a3a	0.024418939
55	0xbc9bb33f	-0.01900637
56	0xbd5dd90d	-0.054162074
57	0x3c71b463	0.01475248
58	0x3d06156c	0.032735273
59	0xbd49937e	-0.049212925
60	0x3d93db6c	0.07219586
61	0x3d87cf21	0.066313036
62	0x3d6e42b6	0.05816909
63	0x3c9c8eda	0.019111086
64	0xbd47689b	-0.048683744
65	0x3cf7729b	0.030206015
66	0xbce9c6ba	-0.028537143
67	0xbd01edcb	-0.031720918
68	0x3bc74988	0.0060817637
69	0xbca7b28e	-0.020470884
70	0x3c8c436b	0.017121991
71	0xbcb4909e	-0.022041615
72	0xbbb3e850	-0.0054903403
73	0xbc8ef350	-0.017450005
74	0xbce6806b	-0.028137406
75	0xbb2927ed	-0.002581115
76	0x3c6de077	0.014518849
77	0x3cbc4c60	0.022985637
78	0xbd7416fc	-0.059592232
79	0xbd73cc1f	-0.059520837
80	0x3d20d577	0.039266076
81	0x3bb7626b	0.005596449
82	0x3d5b43a5	0.053531308
83	0x3c448cd0	0.011996463
84	0xbcb3366c	-0.021876536
85	0xbcb2bdd6	-0.021819036
86	0x397e5f15	0.00024258748
87	0xbced7cec	-0.028990231
88	0xbced759e	-0.028986748
89	0xbcc454ca	-0.023966212
90	0xbcb064db	-0.021532467
91	0xbd0c26aa	-0.03421656
92	0x3d670672	0.05640263
93	0x3d4022d0	0.0469082
94	0x3d0c1d4a	0.03420762
95	0xbc93bc78	-0.018034205
96	0xbc417e20	-0.011809856
97	0x3d127fab	0.035766285
98	0x3c1543ce	0.009110404
99	0x3bb27e7c	0.005447207
100	0xbc65701c	-0.01400378
101	0x3cd9b0b6	0.02657352
102	0x3cf1cbc9	0.029516118
103	0x3c105c77	0.008811108
104	0x3d7cd621	0.061727647
105	0x3d0f085a	0.034920074
106	0x3d46f85e	0.048576705
107	0xbce50432	-0.027956102
108	0xbd5e6523	-0.05429567
109	0x3b867115	0.004102836
110	0xbd7818e3	-0.06057061
111	0xbbde9555	-0.006792704
112	0x3cb3630e	0.021897819
113	0xbd5078c9	-0.05089644
114	0x39d93ded	0.00041435604
115	0xbca4aa97	-0.020100875
116	0x3d680d6a	0.056653418
117	0x3d097f3c	0.033568606
118	0xbc9e8454	-0.019350208
119	0xbd2baeb0	-0.04191464
120	0xbd1eeda2	-0.038800843
121	0xbb2e0f55	-0.0026559432
122	0xbcc3ce34	-0.023902036
123	0x3d93ba96	0.07213323
124	0x3c3930b1	0.011303113
125	0xbcecbc9e	-0.028898533
126	0xba3a2c62	-0.00071019505
127	0x3d19b538	0.03752634
128	0xbd2b4679	-0.041815255
129	0x39f7667d	0.0004718787
130	0xbcae0c41	-0.021246077
131	0xbd27c2a8	-0.040957123
132	0x3c26f670	0.010190591
133	0x3d856baa	0.06514676
134	0x3d17b8a6	0.03704133
135	0x3d156d9d	0.03648149
136	0x3d055aa9	0.032557163
137	0xbbd5c9b4	-0.006524289
138	0x3c548ece	0.0129735
139	0xbc612c72	-0.013743507
140	0x3c942bc6	0.018087279
141	0x3cfc148c	0.030771516
142	0xbc9057f9	-0.017620074
143	0xbc0970d2	-0.008388715
144	0x3ba48985	0.0050212764
145	0x3d3edfc2	0.04660011
146	0xbcb2cd48	-0.021826401
147	0xbd13c09a	-0.03607235
148	0xbc41b5e6	-0.011823153
149	0x3c19b4ff	0.009381532
150	0x3c478d2b	0.012179653
151	0x3c95342e	0.018213358
152	0x3cf31cd5	0.029676834
153	0xbbfef94f	-0.0077811847
154	0xbcd33d3e	-0.025786038
155	0x3d9ccb56	0.07655971
156	0x3d81e34d	0.06342182
157	0xbce9af18	-0.028525874
158	0xbd6526d8	-0.055945247
159	0xbc9a998b	-0.018872043
160	0xbd722fc8	-0.0591276
161	0xbd0e2de1	-0.034711722
162	0xbd16ea3e	-0.036844485
163	0xbd540914	-0.05176647
164	0xbd4f0b89	-0.05054811
165	0x3d1a77b1	0.037711803
166	0xbb2f6ee9	-0.0026768988
167	0x3cfdc9b7	0.030979974
168	0xbcb11ff2	-0.021621678
169	0xbd106c7e	-0.035259716
170	0x3ceae7ac	0.028674923
171	0xbc916b31	-0.017751308
172	0xbc3dfbb4	-0.011595655
173	0xbd443e05	-0.04791071
174	0x3d234a71	0.039865915
175	0xba0b0348	-0.0005302918
176	0x3cb9cad7	0.02267973
177	0x3d2d1116	0.042252623
178	0xbca7d966	-0.020489406
179	0xbcef9dac	-0.029249988
180	0xbcc38af8	-0.023869976
181	0xbd193d87	-0.037412193
182	0xbcaf67f1	-0.021411868
183	0xbd5228ab	-0.051308315
184	0xbd0a852c	-0.03381841
185	0xbc8123e2	-0.01576418
186	0x3c89900c	0.01679232
187	0xbd131905	-0.035912532
188	0xbc799a96	-0.01523461
189	0x3d7c5404	0.06160356
190	0x3cde59eb	0.027142486
191	0xbc8401b1	-0.016114088
192	0xbd28ba28	-0.041193157
193	0xbc2632aa	-0.010143915
194	0x3d4b47ec	0.049629137
195	0x3c374de1	0.011188001
196	0x3ca8aafa	0.02058934
197	0xbd051607	-0.03249171
198	0xbbc539c0	-0.006018847
199	0x3ccf7515	0.025324384
200	0x3d1b37d4	0.03789504
201	0x399dea1c	0.000301198
202	0x3d051ec3	0.03250004
203	0xbcd03420	-0.02541548
204	0x3bd44fe0	0.0064792484
205	0xbce00468	-0.027345851
206	0x3c0810ce	0.008304788
207	0xbbbcd97c	-0.005763231
208	0x3c4229ed	0.011850816
209	0x3d47042f	0.048587974
210	0xbc3ec985	-0.011644726
211	0xbc829b37	-0.015943153
212	0xbca3d955	-0.020001093
213	0x3d29c254	0.04144509
214	0xbc8f44d5	-0.017488876
215	0x3d397982	0.045281895
216	0x3d3b2614	0.04569061
217	0x3cf1eae9	0.02953096
218	0x3d046270	0.03232044
219	0x3cb041da	0.021515775
220	0xbba32c45	-0.0049796426
221	0x3c9f1db8	0.01942335
222	0x3c88255f	0.016619382
223	0xbca2929a	-0.019845296
224	0xbb3dc0a4	-0.0028953934
225	0xbc2d0c0b	-0.010561953
226	0xbcaa0191	-0.0207527
227	0x3d085d61	0.033292178
228	0xbc430415	-0.011902829
229	0xbcc9471a	-0.024570037
230	0xbd61cc8d	-0.055126715
231	0xbcd52e6f	-0.026023118
232	0x3d950621	0.072765596
233	0xbc62ca62	-0.013842197
234	0x3d5890ee	0.05287259
235	0xbd577e9e	-0.052610986
236	0x3d43a980	0.04776907
237	0xbd54de65	-0.051969904
238	0xbd3697f0	-0.044578493
239	0xbd52b20b	-0.051439326
240	0xbd06e4c2	-0.032933004
241	0x3cc5665e	0.024096664
242	0x3da62b1f	0.081136934
243	0x3e17a243	0.14807992
244	0x3dd03f62	0.10168339
245	0x3e3aff47	0.18261443
246	0x3e4790ab	0.1948878
247	0x3e007baf	0.12547182
248	0x3e05c5ee	0.13063785
249	0x3e0bfe84	0.13671309
250	0x3daefd04	0.08544353
251	0x3e09f4d4	0.13472301
252	0x3df584e5	0.11988238
253	0x3d6aab54	0.057292297
254	0x3dff1281	0.12454701
255	0x3e1641de	0.14673564

features.0.bias f4 [16]
0	0xbe6f8b92	-0.23393086
1	0xbe68311b	-0.22674982
2	0x3ccd963d	0.025096053
3	0xbe549cae	-0.20762894
4	0xbe76e87a	-0.2411212
5	0xbdfe8cc6	-0.12429194
6	0x3dc76343	0.097357295
7	0xbe5c6aa5	-0.21525057
8	0xbdd50bf6	-0.10402672
9	0xbe040ef1	-0.12896325
10	0xbe6ceb18	-0.23136556
11	0xbe60e7c5	-0.21963413
12	0xbe625b5d	-0.22105165
13	0xbe771d81	-0.24132349
14	0xbe2f5332	-0.1712158
15	0xbe43f2c0	-0.1913557

features.2.weight f4 [16, 16, 5, 5]
0	0x3dca89dd	0.098895766
1	0x3dac5124	0.08413914
2	0x3c439736	0.011937907
3	0xbcf72170	-0.030167311
4	0xbd4db844	-0.050224558
5	0x3d2f0198	0.04272613
6	0x3c040131	0.008056925
7	0x3d52ddd9	0.0514811
8	0x3d1c184e	0.038109116
9	0x3d763660	0.06011045
10	0x3e2eb71b	0.17062037
11	0x3dcb6d28	0.09932929
12	0x3db321f2	0.08746709
13	0xbd571fd2	-0.05252058
14	0x3d9af5b2	0.07566394
15	0x3e1e0ef5	0.15435393
16	0x3d224b37	0.03962251
17	0xbd679785	-0.056540985
18	0x3d2bcede	0.04194533
19	0x3de5d061	0.11221386
20	0x3d302566	0.043004416
21	0x3c2a4e4f	0.010394647
22	0xbcfece1b	-0.031104138
23	0xbd4f4d81	-0.050611023
24	0xbd8a1c3f	-0.06743669
25	0xbd65fc3a	-0.056148745
26	0x3d6388ad	0.055550266
27	0x3cc89f0e	0.024489906
28	0x3d3965dd	0.04526316
29	0x3cdcae32	0.026938532
30	0x3d90067d	0.070324875
31	0x3d96c3bc	0.07361552
32	0xbda8ad9e	-0.0823624
33	0xbccb2e67	-0.0248024
34	0x3cfb79a9	0.03069766
35	0xbd621d9f	-0.05520403
36	0x3d6ea1d4	0.0582598
37	0xbcbcfff7	-0.023071272
38	0x3d1da468	0.03848687
39	0x3d00d213	0.031450342
40	0x3db92346	0.09039931
41	0x3dabc1c7	0.083865695
42	0xbd721d74	-0.05911012
43	0xbd8d5e0a	-0.06902702
44	0x3ce417e1	0.027843418
45	0xbd0c1416	-0.034198843
46	0xbd308ec9	-0.04310492
47	0xbdb2b51a	-0.08725949
48	0xbac91990	-0.0015342701
49	0xbdfa5709	-0.12223632
50	0xbea7404b	-0.3266624
51	0xbb2bb26f	-0.0026198884
52	0x3d841866	0.06449966
53	0x3db92825	0.0904086
54	0x3d9d72f6	0.07687943
55	0xbe4e0ac5	-0.20121296
56	0x3da35f82	0.07977201
57	0x3db69f6c	0.08917126
58	0x3e2a3e7d	0.166254
59	0x3e391fd9	0.18078555
60	0xbd27c5d7	-0.04096016
61	0x3e2e13e1	0.1699977
62	0x3e79f0d2	0.24408272
63	0x3e876d67	0.26450655
64	0x3e57022b	0.20996921
65	0xbd539919	-0.051659677
66	0x3d068c7e	0.032848828
67	0x3dcc4f4b	0.099760614
68	0x3e2f1db8	0.1710118
69	0x3db9e95d	0.09077714
70	0xbd971ad2	-0.073781624
71	0x3d9dc765	0.07704047
72	0x3daaccbc	0.08339831
73	0x3d008963	0.031381022
74	0xbd4b0c5e	-0.04957234
75	0x3d87438b	0.0660468
76	0x3ab4f520	0.0013805963
77	0x3c21a360	0.009865612
78	0xbd59e646	-0.05319812
79	0x3da0160e	0.078167066
80	0xbcce10da	-0.02515452
81	0x3d266249	0.040621076
82	0xbdfd8760	-0.12379336
83	0xbd7e39de	-0.062066905
84	0xbd06b5a1	-0.03288806
85	0x3d8643f2	0.06555928
86	0xbde03bfe	-0.109489426
87	0x3d5d8228	0.054079205
88	0x3bed1866	0.0072355745
89	0xbd4c7253	-0.049913716
90	0x3dc67adc	0.09691402
91	0xbdbb06e4	-0.09132174
92	0x3cab6418	0.020921752
93	0x3d7749a5	0.060372967
94	0x3c7b4d4e	0.015338255
95	0x3dc78fa0	0.09744191
96	0x3c399dc7	0.011329121
97	0x3d69f520	0.057118535
98	0xbd352566	-0.04422512
99	0xb98d5f67	-0.00026964696
100	0xbbb89755	-0.0056332746
101	0xbd74ef2f	-0.059798416
102	0xbd9fda13	-0.07805266
103	0xbd76a9eb	-0.06022064
104	0x3d6150ff	0.055008885
105	0x3d8281d2	0.063724175
106	0x3d495323	0.04915155
107	0x3d149b7d	0.036281098
108	0xbc41d6c2	-0.011830987
109	0xbc66db2c	-0.014090341
110	0x3d9c0ca2	0.07619597
111	0xbd4c6fcb	-0.0499113
112	0xbda62c8b	-0.08113965
113	0xba8d72d2	-0.0010791665
114	0xbc833c20	-0.01601988
115	0x3d0a5bba	0.033778884
116	0xbd125a66	-0.035730742
117	0xbd859059	-0.06521673
118	0x3d1b97d9	0.03798661
119	0x3d803c96	0.06261556
120	0xbcc51895	-0.024059573
121	0xbbb97355	-0.0056595006
122	0xbd0a18b7	-0.033714976
123	0xbdd5dd65	-0.10442618
124	0x3d8f1d2e	0.069879875
125	0x3d88fafb	0.06688496
126	0x3cd6daee	0.02622744
127	0x3d43551c	0.04768859
128	0x3d112a16	0.035440527
129	0x3da96797	0.08271711
130	0x3c219c94	0.009863991
131	0xbd9d751c	-0.076883525
132	0x3d0226a0	0.031775117
133	0xbdac062d	-0.083996154
134	0xbdca50d2	-0.098786965
135	0xbd4a12bd	-0.049334276
136	0xbd889c91	-0.06670488
137	0x3d43a51d	0.047764886
138	0x3c0f626e	0.008751495
139	0x3d5b5113	0.053544115
140	0x3bc415c7	0.0059840414
141	0xbdb9ea7a	-0.09077926
142	0xbe28a3bd	-0.16468711
143	0xbd733760	-0.05937898
144	0xbd30d2f8	-0.043169945
145	0x3d5d28a1	0.053993825
146	0x3de7da02	0.113208786
147	0x3bbaf2b0	0.0057052
148	0xbd1509bd	-0.03638624
149	0x3c78f0a7	0.015194095
150	0xbe23da7d	-0.16001315
151	0xbe1a40d6	-0.15063795
152	0xbe1b38fe	-0.1515846
153	0xbdea0ccb	-0.11428221
154	0xbe068087	-0.13134967
155	0xbd028fca	-0.03187541
156	0x3dd94b94	0.106101185
157	0xbc67ba94	-0.014143605
158	0xbc854979	-0.016270386
159	0xbde462b3	-0.11151638
160	0x3d6d9c5b	0.05801044
161	0x3e54c2ba	0.20777407
162	0x3da441ef	0.08020388
163	0x3c652f4e	0.013988329
164	0xbe230195	-0.15918572
165	0x3e78e7a5	0.24307115
166	0x3e88267f	0.2659187
167	0x3e778e03	0.24175267
168	0x3e24e479	0.1610278
169	0xbce27a23	-0.02764613
170	0x3e1096ca	0.14120021
171	0x3dfa64fa	0.12226291
172	0x3d615a29	0.055017624
173	0x3da6fb0b	0.081533514
174	0xbe46163a	-0.19344416
175	0xb9bb8074	-0.00035763124
176	0x3da1fc89	0.079094954
177	0xbd5114a8	-0.05104509
178	0x3d36a39a	0.044589616
179	0xbd5a2262	-0.053255446
180	0x3dc2cc1d	0.09511588
181	0x3cc405cd	0.023928547
182	0x3da38534	0.07984391
183	0x3d8f4100	0.0699482
184	0xbcdc2cb6	-0.026876789
185	0x3d89ea70	0.067341685
186	0x3d907f92	0.07055582
187	0x3d15ddc9	0.036588464
188	0xbcba0b42	-0.022710446
189	0xbd9e8abc	-0.07741305
190	0x3d8233fe	0.06357573
191	0x3de1b132	0.110201254
192	0x3d1755d0	0.03694707
193	0xbd94fa50	-0.07274306
194	0xbc2720e3	-0.010200712
195	0x3dd78273	0.10522928
196	0x3d740c04	0.05958177
197	0x3db7e115	0.08978478
198	0x3d0923b1	0.033481304
199	0xbd52e7a3	-0.051490437
200	0x3dcf08cd	0.101091005
201	0xbbc8cfc8	-0.006128285
202	0xbd349568	-0.044087797
203	0x3d28764e	0.04112845
204	0xbb284324	-0.0025674785
205	0xbd9437b7	-0.07237189
206	0xbd3834d3	-0.044972252
207	0xba8ce797	-0.0010750171
208	0x3daca047	0.08429008
209	0xbda4d207	-0.08047872
210	0xbcd4fd17	-0.025999589
211	0xba636d86	-0.0008675683
212	0x3d0389a8	0.0321137
213	0x3d0af931	0.033929054
214	0x3da018be	0.07817219
215	0x3d5bedcd	0.05369358
216	0xbd9b4540	-0.07581568
217	0xbbd52318	-0.0065044276
218	0xbd92d606	-0.07169728
219	0xbb2e274a	-0.002657371
220	0x3d41eca6	0.047344826
221	0x3d300cc8	0.04298094
222	0x3d885b45	0.06658033
223	0xbd132374	-0.035922483
224	0x3d34fc7b	0.044186097
225	0xbe0345dd	-0.1281962
226	0xbde285d3	-0.11060681
227	0xbddacfef	-0.106841914
228	0xbcb3d9c5	-0.021954427
229	0x3e09dadf	0.13462399
230	0x3d97af4f	0.07406484
231	0xbd9d01ba	-0.07666345
232	0xbdcf06ac	-0.101086944
233	0xbd8a1480	-0.06742191
234	0x3bca4405	0.0061726593
235	0xbda91eb3	-0.082578085
236	0x3ca1b6a7	0.019740416
237	0xbc1ee953	-0.0096991835
238	0xbd6ccaf9	-0.057810757
239	0xbca954d7	-0.020670338
240	0x3e173769	0.14767231
241	0x3e0490ec	0.12945908
242	0xbc45e5ba	-0.012078697
243	0x3e123db6	0.14281353
244	0x3ddf7b9a	0.10912247
245	0xbda22a57	-0.07918232
246	0xbe1f2cd5	-0.15544446
247	0xbdb9cc58	-0.090721786
248	0xbdde96d6	-0.108686134
249	0xbd2c6022	-0.042083867
250	0xbc6c5d73	-0.014426577
251	0x3d6a51a1	0.057206754
252	0xbdc97bd6	-0.09838073
253	0xbba13f17	-0.004920851
254	0xbd949d57	-0.07256573
255	0x3c7c75cf	0.015408947

features.2.bias f4 [16]
0	0xbdc1e0ff	-0.09466743
1	0xbe811e4d	-0.2521843
2	0xbdd67c81	-0.10472966
3	0xbdd02b88	-0.10164553
4	0xbda93b26	-0.08263235
5	0xbd88b9a0	-0.0667603
6	0xbd4571cc	-0.04820423
7	0xbddda145	-0.10821775
8	0xbd90507e	-0.07046603
9	0x3e006c93	0.12541418
10	0x3e10ba7d	0.1413364
11	0xbdec647b	-0.11542603
12	0xbd7941c0	-0.06085372
13	0xbd532f3f	-0.05155873
14	0x3dd5de6b	0.104428135
15	0x3d65a0f2	0.056061693

features.5.weight f4 [16, 16, 5, 5]
0	0x3e29addf	0.16570233
1	0x3e735b4f	0.237653
2	0x3e3d06d5	0.18459637
3	0x3d23ad94	0.03996046
4	0xbe0b6775	-0.13613684
5	0x3dedc468	0.11609727
6	0x3e70aa71	0.23502518
7	0x3e479757	0.19491325
8	0x3ce81037	0.028328044
9	0xbd71468c	-0.05890517
10	0x3d851aa8	0.06499225
11	0x3dad8964	0.08473471
12	0x3e28edf1	0.16497017
13	0xbd737f23	-0.05944742
14	0xbe0ade41	-0.13561346
15	0xbca5b70e	-0.020228889
16	0xbdcf4f8c	-0.10122594
17	0xbd4debc7	-0.050273683
18	0xbd80cb38	-0.06288761
19	0xbe0e7ada	-0.13914052
20	0xbd83bf09	-0.064329214
21	0xbe6d9a36	-0.23203358
22	0xbe0f284f	-0.1398022
23	0xbe0b5203	-0.13605504
24	0xbdd47850	-0.1037451
25	0x3db71888	0.08940226
26	0xbd809d76	-0.06280033
27	0xbccd2f1a	-0.025046874
28	0xbdc1a9af	-0.09456193
29	0xbe1930c7	-0.14960013
30	0xbe093b1e	-0.13401458
31	0xbe4e8cf3	-0.20170955
32	0xbdb73ef7	-0.089475565
33	0xbe395034	-0.18097001
34	0xbe473aaf	-0.1945598
35	0xbd08d644	-0.033407465
36	0xbe28d9a9	-0.16489281
37	0xbe04dbf0	-0.12974524
38	0xbd783e62	-0.060606368
39	0xbe314351	-0.17310835
40	0xbd3ca9d9	-0.046060417
41	0x3bb214ad	0.0054345937
42	0x3ca85ee4	0.02055306
43	0xbd5f6fcc	-0.054549977
44	0xbd635018	-0.055496305
45	0xbd35d5c2	-0.04439331
46	0xbc3d133b	-0.011540229
47	0xbda23eff	-0.07922172
48	0xbb633e24	-0.003467449
49	0xbdd21c1c	-0.10259268
50	0xbd415003	-0.047195446
51	0xbc1cd8fc	-0.0095732175
52	0x3afd4c65	0.0019325136
53	0xbd4384a7	-0.04773393
54	0xbd416eab	-0.04722468
55	0x3d25200e	0.040313773
56	0x3ce18e42	0.027533654
57	0x3cc7372b	0.024318298
58	0xbd17518f	-0.036943015
59	0x3b801608	0.0039088763
60	0xbc817fa8	-0.015807942
61	0xbd963ce9	-0.073358364
62	0xbd9752d8	-0.07388848
63	0xbdd94880	-0.106095314
64	0xbd39e9f5	-0.045389134
65	0x3d236579	0.039891694
66	0xbc8e3771	-0.01736042
67	0x3cfd90bb	0.030952802
68	0x3cf27a4f	0.029599337
69	0x3d2199a6	0.03945317
70	0xbcd8cc97	-0.026464744
71	0xbce67ad3	-0.028134739
72	0x3de15eca	0.11004408
73	0x3d96fe4c	0.07372722
74	0x3e0b20aa	0.13586679
75	0x3dd877bf	0.10569715
76	0x3e30a6e9	0.17251171
77	0xbc8cda70	-0.017194003
78	0xbdae1d7c	-0.085017174
79	0xbe0ebef1	-0.13940026
80	0x3e0f21b4	0.139777
81	0x3e0f56a8	0.139979
82	0xbcada07e	-0.021194693
83	0xbd46e96a	-0.048562445
84	0xbe49f9e5	-0.19724233
85	0x3e036453	0.1283124
86	0x3db15738	0.08659214
87	0x3d26a925	0.040688653
88	0xbe3c88b2	-0.1841152
89	0xbe48efa7	-0.1962267
90	0x3e313685	0.17305954
91	0x3d9ffed7	0.07812279
92	0x3d54b772	0.05193276
93	0xbe19141a	-0.14949074
94	0xbddc1e33	-0.107479475
95	0x3cf3f804	0.029781349
96	0x3dc9d9af	0.09855973
97	0x3ce748af	0.0282329
98	0xbd9c0ac3	-0.0761924
99	0xbe461cea	-0.19346967
100	0xbd6c3308	-0.057665855
101	0xbd8eeb79	-0.069785066
102	0x3d15a870	0.036537588
103	0x3d0d2047	0.03445461
104	0x3d87eeea	0.06637366
105	0xbdb3542d	-0.0875629
106	0x3ccbae47	0.024863375
107	0xbbf71b62	-0.007541106
108	0xbd80da5e	-0.0629165
109	0x3d2044c3	0.039128076
110	0xbbf11e23	-0.007358329
111	0xbdae4bb0	-0.0851053
112	0x3bfceb1b	0.0077184564
113	0xbd4a06a3	-0.049322736
114	0xbd89f03c	-0.06735274
115	0xbd50f4cf	-0.051014718
116	0x3d6eb0ef	0.058274206
117	0x3b4e3b50	0.0031468458
118	0xbd717ef5	-0.058958966
119	0x3d66e265	0.05636825
120	0x3868d9da	5.5516e-05
121	0x3d3e38f3	0.04644103
122	0xbca63376	-0.02028821
123	0xbc2a3878	-0.01038944
124	0xbcb5434e	-0.02212682
125	0x3d6d4086	0.057922862
126	0x3c417532	0.011807727
127	0xbddaf451	-0.10691131
128	0x3d1f189f	0.03884184
129	0xbd0ca1d4	-0.03433402
130	0xbd173c15	-0.036922533
131	0x3c0f183f	0.008733808
132	0xbda05454	-0.07828584
133	0x3c4627cb	0.012094448
134	0xbd810408	-0.06299597
135	0xbd5bcb4d	-0.05366068
136	0xbcaaa05b	-0.020828417
137	0xbd481304	-0.04884626
138	0xbdb4912c	-0.08816752
139	0xbd87458f	-0.06605064
140	0xbd8daf6a	-0.06918223
141	0xbd725be3	-0.05916966
142	0x3d0c8427	0.034305718
143	0xbdca6514	-0.0988256
144	0xbb9a7c5b	-0.0047145314
145	0x3b153bc4	0.0022771219
146	0xbc0636a0	-0.008191735
147	0xbc58a1fd	-0.013222215
148	0x3def592b	0.11686929
149	0x3dd3b642	0.10337497
150	0xbdc78e50	-0.09743941
151	0xbdfced8c	-0.12349996
152	0x3d1a6aa1	0.037699345
153	0xbcdc22f5	-0.026872138
154	0xbd3e3132	-0.046433635
155	0x3ccc954b	0.024973532
156	0xbd5e2c25	-0.05424132
157	0xbc741491	-0.014897482
158	0x3d9f46dc	0.07777187
159	0x3c1793f0	0.00925158
160	0xbda1b24b	-0.07895335
161	0xbd1244ef	-0.03571027
162	0xbd1baa78	-0.03800437
163	0xbd2bf47d	-0.04198121
164	0xbd4640d1	-0.048401657
165	0xbe123880	-0.14279366
166	0xbc1374c6	-0.009000009
167	0x3d9cb59a	0.07651825
168	0x3dba2860	0.09089732
169	0xbdb6e863	-0.08931043
170	0xbdbedb0e	-0.09319125
171	0xbcc6561e	-0.024210986
172	0xbc668588	-0.014069922
173	0x3d3b0064	0.04565467
174	0xbcd4d27c	-0.025979273
175	0xbdf8b500	-0.12143898
176	0xbdb4be1a	-0.088253215
177	0xbba29e16	-0.004962693
178	0x3ce4bf17	0.02792315
179	0xba5bb0e1	-0.0008380544
180	0x3c6aa5b1	0.0143217305
181	0xbdfe081d	-0.12403891
182	0xbd45d392	-0.048297472
183	0xbdaf644b	-0.08564051
184	0xbdd1ff6b	-0.10253795
185	0xbce95143	-0.028481131
186	0xbd872514	-0.06598869
187	0x3d79200f	0.06082159
188	0xbd7d0d35	-0.061780173
189	0xbd8aaf8e	-0.06771766
190	0x3d72d929	0.05928913
191	0xbd816afe	-0.06319235
192	0x3c670100	0.0140993595
193	0x3c95fcdc	0.01830905
194	0xbc89d31d	-0.0168243
195	0x3d940f1f	0.072294466
196	0x3d95aeee	0.07308756
197	0x3b0c9fe3	0.0021457605
198	0x3cb81baf	0.022474138
199	0xbafcd417	-0.0019289282
200	0xbd00378a	-0.031302966
201	0xbe1164e7	-0.14198647
202	0xbe435d6e	-0.1907861
203	0xbdb76a39	-0.08955807
204	0xbc97f4ad	-0.018549288
205	0x3ce3fd6b	0.0278308
206	0xbdab9fc2	-0.08380081
207	0xbe1ca221	-0.15296222
208	0xbe122b2e	-0.14274284
209	0xbd488c50	-0.048961937
210	0xbd98b194	-0.07455745
211	0xbd8cdbf1	-0.06877888
212	0xbd167f86	-0.03674271
213	0xbd85b216	-0.06528108
214	0xbde6d4d0	-0.112710595
215	0x3cc3dfd4	0.02391044
216	0xbde5a218	-0.112125576
217	0xbdc4ce8f	-0.096097104
218	0xbdf26a2b	-0.11836656
219	0xbe211142	-0.1572924
220	0xbd79de55	-0.061003048
221	0xbd8fe11d	-0.07025359
222	0xba2e3c74	-0.00066465815
223	0x3c82cdaa	0.015967209
224	0xbdbfbc7c	-0.093621224
225	0xbd09c7b5	-0.03363772
226	0xbcc732e4	-0.024316259
227	0xbe31c469	-0.17360081
228	0xbe2485b4	-0.16066629
229	0xbe35e4ad	-0.17763014
230	0x3ce9dd48	0.028547898
231	0x3d067e1b	0.032835107
232	0xbdffa80d	-0.12483225
233	0xbdcc0481	-0.099617966
234	0xbe075b4b	-0.13218419
235	0x3ddd84cf	0.10816347
236	0x3de313ce	0.11087762
237	0x3d33bcc5	0.043881197
238	0xbdfa3886	-0.12217812
239	0xbe0d094a	-0.13773075
240	0x3c9e686a	0.019336898
241	0x3d820709	0.06348998
242	0x3e5aca3b	0.21366207
243	0x3c8e33ea	0.017358739
244	0xbd7a0a2a	-0.06104485
245	0x3d13f1be	0.036119215
246	0x3e31f00d	0.17376728
247	0x3e62e93b	0.22159283
248	0x3de7575c	0.11295959
249	0x3cbb6dba	0.02287947
250	0x3d2cd2de	0.042193286
251	0xbdb0a0bd	-0.086244084
252	0xbe06d911	-0.13168742
253	0xbe34d266	-0.17658386
254	0x3d9601d0	0.073245645
255	0x3d1374b1	0.035999957

features.5.bias f4 [16]
0	0x3de2e834	0.110794455
1	0x3d3bb01e	0.045822255
2	0x3d3e35a2	0.046437867
3	0xbd3d1a93	-0.04616792
4	0x3c03e34f	0.0080498
5	0xbdf43f4f	-0.11926138
6	0xbd71beac	-0.05901973
7	0xbdcc8d66	-0.09987907
8	0x3ca280cd	0.019836808
9	0xbe16b417	-0.14717136
10	0xbdc92a6d	-0.09822545
11	0xbe26cd48	-0.16289246
12	0xbd206bed	-0.039165426
13	0x3ce5b87b	0.028042069
14	0xbd872f43	-0.06600811
15	0x3ca8fa42	0.020627145

features.7.weight f4 [16, 16, 5, 5]
0	0x3d903e7f	0.0704317
1	0x3e10bf05	0.14135368
2	0x3e1871d4	0.14887172
3	0x3df60748	0.120131075
4	0x3d98dae8	0.07463628
5	0x3d63f71a	0.055655576
6	0x3d1fa500	0.038975716
7	0x3da4bac3	0.080434345
8	0x3d54bc3f	0.051937338
9	0x3db50f5d	0.08840821
10	0xbe0f5abf	-0.1399946
11	0x3d3f9294	0.046770647
12	0x3d074828	0.033027798
13	0x3d87a61a	0.06623478
14	0x3d1f0473	0.038822602
15	0xbddeb2c8	-0.108739436
16	0x3c18c482	0.009324195
17	0x3e15313e	0.14569566
18	0x3d8acd8a	0.06777485
19	0x3e1a4601	0.15065767
20	0xbd5539d9	-0.05205712
21	0x3d8f1c8f	0.06987869
22	0xbb4ffafb	-0.003173529
23	0x3ca003fd	0.019533152
24	0x3d480e5c	0.04884182
25	0xbe13b19c	-0.14423221
26	0xbd62cfbb	-0.05537389
27	0xbdef5453	-0.116860054
28	0x3da6fbab	0.081534706
29	0xbd36dc61	-0.044643763
30	0x3c167952	0.009184198
31	0xbd81fb36	-0.06346743
32	0xbe41aaec	-0.18912858
33	0xbcd18274	-0.0255749
34	0xbd0b341e	-0.03398525
35	0xbda55a61	-0.08073879
36	0x3abc36aa	0.0014359553
37	0xbe6373bf	-0.22212122
38	0x3d505adf	0.05086791
39	0x3d134ff3	0.035964917
40	0xbb8f1e8c	-0.004367655
41	0x3da85a6c	0.082203716
42	0xbdaf3f72	-0.08557023
43	0x3c268da7	0.0101656085
44	0x3dc222bf	0.094792835
45	0xbcfca85c	-0.030841999
46	0x3d9d0063	0.076660894
47	0x3dd76cea	0.105188206
48	0x3e06f60a	0.13179794
49	0x3e4384ad	0.1909358
50	0xbcb16cf3	-0.021658396
51	0xbc0492f3	-0.008091676
52	0xbda4419f	-0.08020329
53	0x3bbb9f05	0.0057257437
54	0x3e70bc0b	0.23509233
55	0xbdc09ba5	-0.09404687
56	0xbe5ab72f	-0.21358941
57	0xbdfa4f5d	-0.122221686
58	0x3d212fb3	0.03935213
59	0x3c3b63dc	0.011437383
60	0xbde86313	-0.11347022
61	0xbe8fb1ba	-0.28065282
62	0xbea1577d	-0.3151206
63	0xbba9428f	-0.005165405
64	0x3c1e3f4a	0.009658644
65	0xbdf62970	-0.12019622
66	0xbe1901fb	-0.14942162
67	0xbda20612	-0.07911314
68	0x3dcfd9d6	0.10148971
69	0xbcbffb9d	-0.023435408
70	0xbf01f15d	-0.50758916
71	0xbeb96808	-0.36212182
72	0xbde00f15	-0.10940377
73	0x3d85e9c5	0.065387286
74	0x3caac8ec	0.02084776
75	0xbd2a0aaa	-0.041514076
76	0x3d7710e3	0.06031884
77	0xbd84f524	-0.06492069
78	0x3c091eb1	0.008369134
79	0xbd9efdd3	-0.07763257
80	0xbb5bb63d	-0.003352537
81	0x3d08b801	0.033378605
82	0xbd320211	-0.043459002
83	0x3d2cfee4	0.04223527
84	0xbd91457c	-0.07093331
85	0x3d504834	0.05085011
86	0x3d6e5e27	0.05819526
87	0xbcdbdd94	-0.026839055
88	0xbdae2000	-0.08502197
89	0xbd1a3a14	-0.037653044
90	0x3dc417b8	0.095748365
91	0x3d4bd487	0.04976323
92	0x3d2674bd	0.040638674
93	0xbde54eac	-0.11196646
94	0xbddd1efb	-0.10796925
95	0x3e198516	0.14992175
96	0x3e0014a2	0.12507871
97	0x3dacaba9	0.08431179
98	0xbd33f4f8	-0.043934792
99	0xbd80cdb2	-0.06289233
100	0xbd1ffd50	-0.039059937
101	0xbd1d6a57	-0.03843149
102	0x3becbf1c	0.0072249305
103	0xbd71c8e1	-0.059029464
104	0xbcafdd02	-0.02146769
105	0xbd4b55ab	-0.049642246
106	0x391b93c7	0.00014837003
107	0x3caef96b	0.021359166
108	0x3e0dd13d	0.1384935
109	0x3e1066c2	0.14101699
110	0x3db0613c	0.08612296
111	0x3d8433a1	0.0645516
112	0x3e3e61ff	0.1859207
113	0x3dff1b16	0.12456338
114	0xbb1c9035	-0.0023889665
115	0x3d9182d9	0.07105035
116	0x3e1a04d1	0.150409
117	0x3d9212a5	0.071324624
118	0x3cd7f0ae	0.026359882
119	0xbd341d19	-0.043973062
120	0x3d16b810	0.03679663
121	0x3e13a637	0.14418875
122	0x3d8a34ad	0.06748328
123	0xbd06ba41	-0.03289247
124	0x3d7a5f0f	0.06112581
125	0xbe2ff3d9	-0.17182864
126	0xbe161f6d	-0.14660425
127	0xbe62dff2	-0.22155741
128	0xbd8868a0	-0.06660581
129	0xbab8b8f8	-0.0014093211
130	0xbe7bc8da	-0.24588338
131	0x3d326db4	0.043561652
132	0xbe8d7621	-0.27629188
133	0xbe4637f4	-0.19357282
134	0x3d253cdc	0.040341243
135	0xbe3f19ec	-0.18662232
136	0xbd3c62a1	-0.045992497
137	0xbe69e695	-0.22841866
138	0xbdeffac5	-0.11717752
139	0xbd4b832a	-0.049685635
140	0xbe1dfa08	-0.1542741
141	0xbbb87fdd	-0.005630477
142	0xbe63129b	-0.22175066
143	0xbdb11a7f	-0.08647632
144	0x3c95e024	0.018295355
145	0xbe47492a	-0.19461504
146	0x3ce5bf20	0.028045237
147	0xbdd6411a	-0.10461636
148	0xbcb3cadc	-0.021947317
149	0x3cc00c7f	0.023443459
150	0x3d853c33	0.06505623
151	0x3cc82de5	0.024435947
152	0xbcf3354a	-0.029688496
153	0x3d5a24e4	0.053257838
154	0x3bac5f1c	0.0052603614
155	0xbdc5e558	-0.096628845
156	0xbdbd3f94	-0.09240642
157	0x3d51c910	0.05121714
158	0xbe0e5017	-0.1389774
159	0xbdae30fe	-0.08505438
160	0xbc853b53	-0.01626364
161	0x3c05f0fa	0.008175129
162	0x3b8474a0	0.004042223
163	0xbd84efd8	-0.06491059
164	0xbc507d9f	-0.012725263
165	0x3ca8025c	0.020508938
166	0xbcbc060b	-0.0229521
167	0x3dabce6c	0.08388981
168	0x3bfd599c	0.0077316295
169	0xbc4b60c4	-0.012413207
170	0x3cc5756f	0.024103848
171	0xbd20e78b	-0.039283317
172	0x3d4264d7	0.04745945
173	0xbd71d950	-0.059045136
174	0xbddbe3f0	-0.10736835
175	0x3de1294e	0.10994206
176	0xbcf42516	-0.02980284
177	0x3cefda50	0.029278904
178	0x3d4ae55b	0.049535137
179	0xbd0f0c6e	-0.034923963
180	0xbd3092ac	-0.043108627
181	0xbcfe803a	-0.031067003
182	0x3c0020c5	0.007820313
183	0xbdd79081	-0.10525609
184	0x3d24bb40	0.040217638
185	0xb9d1a0b6	-0.00039983325
186	0x3ced0ecb	0.028937718
187	0x3c89cd6d	0.016821587
188	0xbd8e9286	-0.06961541
189	0xbddb8159	-0.107180305
190	0xbd8b7868	-0.06810075
191	0x3d6d5ce1	0.057949904
192	0xbcbe6ba4	-0.023244686
193	0x3d4b8c08	0.04969409
194	0x3d7f661c	0.06235324
195	0x3d67bab2	0.05657453
196	0x3cd84886	0.02640177
197	0x3d0892e7	0.033343222
198	0x3def5cad	0.116875984
199	0x3e10f85d	0.14157243
200	0xbc507090	-0.0127221495
201	0x3a9da0d3	0.0012026079
202	0xbb8116aa	-0.0039394693
203	0x3d3f78b6	0.04674598
204	0x3d8b5d56	0.06804912
205	0xbd5dd295	-0.054155905
206	0xbd4798ce	-0.04872971
207	0x3c6fc34b	0.014633964
208	0x3dc7722f	0.09738576
209	0x3dcb0ae9	0.0991419
210	0x3c3c24ad	0.011483354
211	0x3a377d22	0.0006999542
212	0x3cf465d0	0.029833704
213	0x3d5c0fed	0.053726126
214	0xbb89e653	-0.004208365
215	0x3d35a72f	0.04434889
216	0xbd063ecd	-0.032774735
217	0x3db21720	0.08695817
218	0x3d7a5219	0.06111345
219	0xbc4c0361	-0.0124519775
220	0xbd44a4d9	-0.048008773
221	0x3da2a1f5	0.07941047
222	0x3ccdcf1c	0.025123172
223	0xbc0c9c81	-0.008582235
224	0x3c019222	0.007908376
225	0xbc55792f	-0.013029381
226	0xbcef6837	-0.029224498
227	0xbe0fa776	-0.14028725
228	0xbca89a19	-0.020581292
229	0x3d3402b5	0.043947894
230	0xbd59f924	-0.053216115
231	0xbd0d094b	-0.03443269
232	0xbc8ccbf0	-0.017187089
233	0xbdc221c8	-0.094790995
234	0x3d2ac8a3	0.04169525
235	0xbdfbf7e1	-0.123031385
236	0xbe273c3e	-0.16331574
237	0xbcd56c77	-0.026052697
238	0x3d611845	0.054954786
239	0xbd9d9085	-0.076935805
240	0xbcb8818a	-0.022522707
241	0xbe1ac158	-0.15112817
242	0xbdab2807	-0.08357244
243	0xbc832a37	-0.01601134
244	0xbcaba5be	-0.020953055
245	0xbd870754	-0.065931946
246	0xbd8101af	-0.06299149
247	0xbd9c0c79	-0.076195665
248	0xbded6e93	-0.11593356
249	0xbdb1c230	-0.086796165
250	0x3c4b3a01	0.012403966
251	0x3cd85c2e	0.026411142
252	0xbc7712c1	-0.015080155
253	0xbaf16e85	-0.0018419778
254	0xbd4cb599	-0.049977873
255	0xbcc4f799	-0.024043845

features.7.bias f4 [16]
0	0xbe913bae	-0.28365844
1	0x3e60bf60	0.21948004
2	0x3e678113	0.22607832
3	0xbd9deb9c	-0.077109545
4	0xbdc1ac8c	-0.09456739
5	0xbe4e0140	-0.20117664
6	0x3d95ea8b	0.07320126
7	0x3d133ea7	0.03594842
8	0x3e21aea6	0.1578928
9	0xbe4dbc50	-0.20091367
10	0x3e27a490	0.1637137
11	0xbe83fdab	-0.2577947
12	0x3d3ad03f	0.045608755
13	0xbd6e2d2d	-0.05814855
14	0xbe1fee90	-0.15618348
15	0xbe29cdf7	-0.16582476

features.10.weight f4 [32, 16, 5, 5]
0	0xbd5ca051	-0.053863827
1	0xbe6266c6	-0.22109517
2	0xbef0a239	-0.46998766
3	0xbf011066	-0.5041565
4	0xbec96075	-0.39331403
5	0xbe00bad9	-0.12571277
6	0xbd15000f	-0.03637701
7	0xbe52d6ef	-0.20589803
8	0xbe91c56d	-0.28470936
9	0xbe852195	-0.26002184
10	0x3c8dbf53	0.017303145
11	0xbe0e67cc	-0.13906783
12	0xbe139aba	-0.14414492
13	0x3d424b47	0.04743507
14	0x3dc9803e	0.098389134
15	0x3e2795e0	0.16365767
16	0xbeb4b295	-0.35292497
17	0xbe25041d	-0.1611485
18	0x3d51e5d4	0.05124457
19	0x3ccba058	0.024856731
20	0x3d850a39	0.064960904
21	0xbe0b7ef9	-0.13622655
22	0xbe430f15	-0.19048722
23	0x3c0cbb31	0.008589552
24	0xbc2ec75c	-0.010667648
25	0xbd9dd4d6	-0.07706611
26	0xbe2ba276	-0.16761193
27	0xbe5ebbde	-0.21751353
28	0xbd85b12d	-0.06527934
29	0xbd3deb0d	-0.04636674
30	0x3d9a4127	0.07531958
31	0x3df97010	0.12179577
32	0xbcf07041	-0.029350402
33	0x3ddaad94	0.10677639
34	0x3d428bb4	0.047496513
35	0xbdbbb2da	-0.091649726
36	0xbd0d608b	-0.0345159
37	0x3d8cab2d	0.06868587
38	0x3e080f43	0.13287072
39	0xbadf5bc3	-0.0017040897
40	0x3e22c1af	0.15894197
41	0x3daea7c1	0.0852809
42	0x3d887f44	0.06664899
43	0xbd10eb97	-0.035380926
44	0xbe3871e9	-0.18012203
45	0x3e05ab23	0.13053565
46	0x3da8e20c	0.0824624
47	0x3cf86e77	0.030326111
48	0x3e2f9bb7	0.17149244
49	0x3ddbb067	0.107270055
50	0x3cd07ca4	0.025450058
51	0xbd9c1608	-0.076213896
52	0xbe43fb62	-0.19138864
53	0xbea4c563	-0.32181844
54	0xbe8c09fd	-0.2735137
55	0xbdb53b90	-0.08849251
56	0x3de0427f	0.10950183
57	0xbddac15f	-0.10681414
58	0xbe2dc124	-0.16968209
59	0xbe71283a	-0.23550501
60	0xbdc5b1db	-0.09653064
61	0xbd38f539	-0.045155738
62	0x3deade16	0.11468141
63	0x3e354f6c	0.17706078
64	0xbd123774	-0.035697415
65	0x3db844dd	0.0899751
66	0x3e631417	0.22175632
67	0x3e74a3a6	0.23890552
68	0x3e033243	0.12812142
69	0x3dd07c94	0.101800114
70	0xbc4356db	-0.011922563
71	0x3da35019	0.07974262
72	0x3dc786c2	0.097425
73	0x3db0aa14	0.0862619
74	0x3d05b994	0.032647684
75	0x3cc879a4	0.024472065
76	0xb925eead	-0.0001582454
77	0xbe353912	-0.17697552
78	0xbeacdc51	-0.33761838
79	0xbe64cc93	-0.22343664
80	0x3b131ce9	0.0022447652
81	0x3d5d8e7b	0.054090958
82	0x3bc5027e	0.00601226
83	0xbd51f12a	-0.051255383
84	0xbd96a690	-0.07355988
85	0xbc2046a7	-0.00978247
86	0x3dbc676f	0.09199416
87	0x3e26a77e	0.1627483
88	0x3e858023	0.26074323
89	0x3e106ca3	0.14103942
90	0xbe9ed811	-0.3102422
91	0xbe3a504f	-0.18194698
92	0x3e441510	0.1914866
93	0x3e9081c6	0.2822401
94	0x3e1b6c6b	0.15178077
95	0xbdb059d1	-0.08610881
96	0xbdfa1be5	-0.12212352
97	0x3c026eeb	0.007961015
98	0x3e516dc7	0.20452033
99	0x3e1182a6	0.14209995
100	0x3e8e7c70	0.27829313
101	0x3de6b5fa	0.11265178
102	0xbdc02bd8	-0.093833625
103	0xbe4d5d54	-0.20055133
104	0xbe8e229e	-0.27760786
105	0x3ea4e497	0.3220565
106	0x3e07b940	0.13254261
107	0x3dd2d1f6	0.10293953
108	0xbf1257b2	-0.5716506
109	0xbe65b1dc	-0.22431129
110	0xbe04563b	-0.1292352
111	0x3e2e5e56	0.17028174
112	0x3e531bce	0.20616075
113	0x3dd1a77a	0.10237022
114	0x3eb7c489	0.35892132
115	0xbe0abbfa	-0.1354827
116	0xbd47ebb4	-0.04880877
117	0xbdaad93b	-0.08342215
118	0x3dc2eaed	0.09517465
119	0xbd21e08e	-0.039520793
120	0xbd6ba87a	-0.05753372
121	0xbd154c14	-0.036449507
122	0x3d75c9d7	0.060006943
123	0x3dfc9b1a	0.12334271
124	0x3d37ac45	0.044842023
125	0xbe5e5e18	-0.21715581
126	0x3dc81044	0.097687274
127	0xbd928c40	-0.07155657
128	0x3c9304c6	0.017946612
129	0xbeef282f	-0.46710345
130	0xbe123ef8	-0.14281833
131	0x3e01b9a9	0.1266848
132	0x3c953ddb	0.018217972
133	0xbe2108b8	-0.15725982
134	0xbe6bbde7	-0.23021661
135	0x3e2066a5	0.15664156
136	0x3e33e590	0.1756804
137	0xbd0bdfdd	-0.03414904
138	0xbd993827	-0.07481413
139	0xbe2f3df7	-0.17113481
140	0x3e7f534e	0.24934122
141	0x3c942146	0.018082272
142	0x3d41beb9	0.047301028
143	0x3cda4dde	0.026648458
144	0xbcec55da	-0.028849531
145	0xbe025fd4	-0.12731868
146	0xbc7765b5	-0.015099932
147	0xbdcae97a	-0.09907813
148	0xbdd36542	-0.10322048
149	0xbdda3fb5	-0.106566824
150	0x3cd942a4	0.026521035
151	0x3d3b40d2	0.045716114
152	0xbd42d5c9	-0.047567163
153	0xbdde8c53	-0.108666085
154	0xbdd3d7a1	-0.10343862
155	0x3e244b17	0.1604427
156	0x3e8842c5	0.2661344
157	0x3e28103b	0.16412441
158	0xbd9bc9d7	-0.07606857
159	0xbe605a16	-0.21909365
160	0xbd5027e3	-0.05081929
161	0x3e39a820	0.18130541
162	0x3ea16a52	0.31526428
163	0x3e3afb27	0.1825987
164	0xbd8e1a01	-0.069385536
165	0xbe1e2293	-0.15442877
166	0xbc6effe8	-0.01458738
167	0x3e7e764a	0.24849811
168	0x3e54c290	0.20777345
169	0xbc76a5e3	-0.015054199
170	0xbe57b9fc	-0.21067041
171	0xbe4658ff	-0.19369887
172	0xbd41925d	-0.047258724
173	0x3add4708	0.0016882131
174	0xbd394baf	-0.045238193
175	0x3e7b3df0	0.24535346
176	0x3df911c9	0.121615954
177	0x3e05dbcb	0.13072126
178	0x3d87977c	0.0662069
179	0xbd82630a	-0.063665465
180	0x3da30f5f	0.07961916
181	0x3dac9a68	0.08427888
182	0xbc84f9b7	-0.016232355
183	0xbd8ea2ee	-0.0696467
184	0xbdc383ed	-0.09546647
185	0xbd4b9f21	-0.049712304
186	0x3d43c42d	0.04779451
187	0xbd286aef	-0.041117605
188	0xbc6a5398	-0.014302157
189	0xbe3c41eb	-0.1838452
190	0x3d4945c3	0.049138796
191	0x3dbe8889	0.09303386
192	0x3dbcc6a6	0.09217577
193	0xbd248de8	-0.040174395
194	0x3be9d2fa	0.007135746
195	0xbd66c0ac	-0.05633609
196	0xbd015b5d	-0.03158127
197	0xbdf91a49	-0.121632166
198	0xbe0118b8	-0.12607086
199	0xbde5d109	-0.11221511
200	0x3d921e37	0.07134669
201	0xbd757754	-0.059928253
202	0xbc3f98b3	-0.011694121
203	0xbd62493d	-0.055245627
204	0xbd873506	-0.0660191
205	0xbd4e3b74	-0.050349668
206	0x3d5fd32a	0.05464474
207	0xbdf564cc	-0.11982116
208	0xbe268d9f	-0.16264962
209	0xbda4f606	-0.08054738
210	0x3e1bb327	0.1520506
211	0x3db60c8a	0.088891104
212	0x3dda59ba	0.10661645
213	0xbe1a5ab2	-0.1507366
214	0xbdfe0ef0	-0.12405193
215	0x3c9a0cca	0.018804926
216	0x3ded22a6	0.11578874
217	0x3d2a787d	0.041618813
218	0xbd9e6a26	-0.0773509
219	0xbd9f287c	-0.07771394
220	0xbe020d74	-0.12700444
221	0xbdb539b7	-0.08848899
222	0xbdb3b282	-0.08774282
223	0xbe15655c	-0.14589447
224	0xbde256d3	-0.11051717
225	0x3d125e1d	0.035734285
226	0x3d2d2232	0.04226894
227	0x3d6b452a	0.057439007
228	0x3d496b7a	0.049174763
229	0xbccfe133	-0.025375938
230	0xbd3d9f31	-0.046294395
231	0xbdb9d262	-0.090733305
232	0x3c4d7897	0.012540958
233	0xbe517782	-0.20455745
234	0xbe5ce11b	-0.21570246
235	0xbe23f91d	-0.16012998
236	0xbde65f06	-0.11248593
237	0xbe2ae5e5	-0.1668926
238	0xbe8fcd39	-0.2808626
239	0xbea719f7	-0.32636997
240	0x3d971918	0.07377833
241	0x3d81be7e	0.063351616
242	0x3d81af50	0.06332266
243	0xbdc0da75	-0.09416667
244	0xbdad80a1	-0.084718
245	0x3cf02acf	0.029317288
246	0x3cba232f	0.022721855
247	0x3e19c1dd	0.15015359
248	0xbd1c6f5e	-0.038192146
249	0xbdb84254	-0.08997026
250	0x3daf6c9a	0.08565636
251	0x3c217d4b	0.009856532
252	0xbdc2fe37	-0.09521144
253	0xbe0c0b5f	-0.13676213
254	0xbd59595a	-0.053063728
255	0x3e06958b	0.13142984

features.10.bias f4 [32]
0	0x3d107177	0.03526446
1	0xbcce0469	-0.025148587
2	0xbd0ec88f	-0.034859236
3	0x3d7e45fb	0.062078457
4	0x3c2088b4	0.009798218
5	0xbe179d59	-0.14806117
6	0x3caba6b1	0.020953508
7	0xb9b22ae3	-0.0003398276
8	0x3e35f130	0.17767787
9	0xbc5eaec1	-0.013591469
10	0xbde14b5b	-0.11000701
11	0x3d352b41	0.044230703
12	0x3d7f159c	0.062276468
13	0x3d7c46b2	0.061590858
14	0xbcfae881	-0.030628445
15	0xbe589f20	-0.21154451
16	0x3d84c141	0.06482173
17	0x3d298b52	0.04139263
18	0x3dcb203b	0.09918257
19	0xbe274d22	-0.16338018
20	0xbe2084a3	-0.15675597
21	0xbe380502	-0.1797066
22	0x3bb7a685	0.0056045675
23	0xbe36c1a4	-0.17847306
24	0xbdc6e819	-0.09712238
25	0xbd8fdbe0	-0.0702436
26	0x3db79831	0.08964575
27	0x3c537a3c	0.012907561
28	0x3e7f02a8	0.24903357
29	0xbdcd12b5	-0.10013334
30	0x3df423ac	0.11920866
31	0x3dabf3f1	0.083961375

features.12.weight f4 [32, 32, 5, 5]
0	0xbc6c339f	-0.014416604
1	0xbd02c140	-0.03192258
2	0xbdc35b19	-0.0953886
3	0xbd897153	-0.06711068
4	0x3c6fe021	0.014640839
5	0xbd45ee91	-0.048323218
6	0x3c237b0b	0.009978066
7	0xbd5a70ae	-0.053330116
8	0xbd564885	-0.052315254
9	0x3d1681a7	0.03674474
10	0xbd63d2bb	-0.05562089
11	0x3c465cee	0.012107117
12	0xbda9b458	-0.08286351
13	0xbc03f2d3	-0.008053499
14	0x3c55958c	0.013036143
15	0x3d889d94	0.06670681
16	0xbd9e402b	-0.07727083
17	0xbde3ba03	-0.11119463
18	0xbd47a451	-0.04874069
19	0xbe0b28e4	-0.13589817
20	0x3dbe0337	0.09277957
21	0x3cb9e0be	0.022690173
22	0xbd81b13c	-0.06332633
23	0xbda5f793	-0.08103862
24	0x3ba2384c	0.0049505588
25	0x3d890f27	0.06692343
26	0x3c344b84	0.011004332
27	0xbcd9e2ef	-0.026597468
28	0x3dd8494d	0.10560856
29	0xbce4be25	-0.0279227
30	0x3b492709	0.0030693433
31	0xbc67542a	-0.014119187
32	0xbd39b694	-0.045340136
33	0xbc985f9f	-0.018600283
34	0xbd70ddfd	-0.058805455
35	0x3db8a716	0.09016244
36	0x3c4f6a83	0.012659672
37	0xbc22efba	-0.009944851
38	0xbddd1ed0	-0.10796893
39	0x3e0c9ebd	0.13732429
40	0xbd57fd20	-0.052731633
41	0xbd8c7cb0	-0.0685972
42	0xbd2e0df2	-0.042493768
43	0x3d5aa144	0.05337645
44	0xbe230e92	-0.15923527
45	0xbde63c75	-0.11242
46	0xbc8c15c3	-0.01710022
47	0xbd92dcd5	-0.071710266
48	0xbdaa514e	-0.08316289
49	0xbd2616b4	-0.040548995
50	0x3d1b1b2f	0.03786772
51	0x3c02e3c8	0.007988878
52	0xbd21c072	-0.03949017
53	0xbddd13a9	-0.107947655
54	0xbc65f626	-0.014035737
55	0xbd16f513	-0.036854815
56	0xbd912551	-0.07087196
57	0x3db11b70	0.086478114
58	0x3cebb04a	0.028770585
59	0xbce924ce	-0.028459933
60	0x3d0171df	0.031602737
61	0xbd3ef1ba	-0.046617247
62	0xbc160294	-0.009155888
63	0xbd607703	-0.054801
64	0xb9819b0a	-0.0002472031
65	0xbd1afe0a	-0.037839927
66	0xbd42aa2a	-0.047525562
67	0xbd1f75aa	-0.038930573
68	0xbc90f0d5	-0.017692963
69	0x3ddf2f02	0.10897638
70	0xbd4e6eec	-0.050398752
71	0xbd87581d	-0.06608603
72	0x3d88d0ee	0.06680475
73	0x3d67f9b0	0.056634605
74	0xb9f5fee3	-0.00046919947
75	0x3d788409	0.060672794
76	0xbd8bc685	-0.06824974
77	0xbde2e878	-0.11079496
78	0xbe274c48	-0.16337693
79	0x3d8ad90f	0.06779682
80	0x3d10deb4	0.035368636
81	0x3c9947c5	0.01871098
82	0x3b011401	0.001969576
83	0xbcdf266e	-0.027240004
84	0xbdb00f81	-0.08596707
85	0xbe04a9e2	-0.1295543
86	0x3d31b249	0.043382917
87	0xbda86100	-0.08221626
88	0xbdab2319	-0.08356304
89	0xbddabf7a	-0.106810525
90	0xbde26681	-0.11054707
91	0xbdbcedb9	-0.092250295
92	0xbdfcfd9c	-0.1235306
93	0xbd404879	-0.046944115
94	0xbd587bfa	-0.05285261
95	0xbd144c40	-0.03620553
96	0xbde56497	-0.112008266
97	0xbda56ac5	-0.08077005
98	0xbdf88539	-0.12134785
99	0xbe2b12a2	-0.16706327
100	0xbe23fb07	-0.16013728
101	0xbd146cb4	-0.03623648
102	0xbd1ebfe4	-0.03875722
103	0x3d25d742	0.04048849
104	0x3da9b3a6	0.08286218
105	0x3d00b8ca	0.03142623
106	0xbda60b1a	-0.08107586
107	0x3cebbe75	0.02877734
108	0xbc3aa6c3	-0.011392298
109	0x3c5a9136	0.013340285
110	0x3e2b0218	0.16700017
111	0x3c99348a	0.01870181
112	0xbc6e1bcc	-0.0145329945
113	0xbd86636e	-0.065619335
114	0xbd7e7bad	-0.062129665
115	0x3d982d4e	0.07430516
116	0x3da56c5b	0.08077308
117	0xbc9ffd2f	-0.019529907
118	0xbd63b872	-0.055595823
119	0xbd7253ec	-0.059162065
120	0xbcd04e2d	-0.025427902
121	0x3d8a9873	0.06767359
122	0xbdc4c45d	-0.09607766
123	0xbd99662a	-0.074901894
124	0xbd83d311	-0.06436742
125	0xbcc452a1	-0.023965182
126	0xbc6416e4	-0.013921473
127	0xbd67139a	-0.056415178
128	0xbd6a0a1b	-0.057138544
129	0xbdaa7a17	-0.08324068
130	0x3c091d5c	0.008368816
131	0xbe1b4cc2	-0.15166
132	0xbd23f179	-0.04002521
133	0x3d17299c	0.036904916
134	0xbd82771f	-0.06370377
135	0x3bdb41d5	0.0066911974
136	0x3d5ce8c0	0.053932905
137	0xbd15ddc1	-0.036588434
138	0x3c4d6398	0.012535952
139	0xbdae5dbd	-0.08513973
140	0xbcf659a5	-0.030072043
141	0x3ce5ee54	0.028067745
142	0x3c0aa5d0	0.008462384
143	0xbcd75880	-0.026287317
144	0xbb747b29	-0.0037304854
145	0x3c842137	0.01612912
146	0xbbcef1bb	-0.0063154376
147	0xbd13833b	-0.036013823
148	0xbc039aa1	-0.008032472
149	0xbc62fa1e	-0.013853578
150	0xbcf78c87	-0.030218376
151	0xbcc74a60	-0.024327457
152	0xbc7321f5	-0.014839639
153	0x3d862419	0.06549854
154	0x3df458a2	0.11930968
155	0x3bed5ee8	0.0072439797
156	0xbd03a1cf	-0.032136735
157	0xbd9c1f0b	-0.076231085
158	0xbd8199d7	-0.06328171
159	0xbd36cbd0	-0.044627964
160	0xbd5ea55e	-0.054356925
161	0xbd107b0c	-0.035273597
162	0xbdd8d09c	-0.10586664
163	0xbca45fbc	-0.020065181
164	0xbda76c78	-0.08174986
165	0x3e27491e	0.16336486
166	0x3da36c17	0.07979601
167	0xbd07485d	-0.033027995
168	0xbb46bcaf	-0.0030324867
169	0xbd884ee5	-0.06655673
170	0xbcdaf2b5	-0.02672706
171	0xbd47e67e	-0.0488038
172	0xbe3e19da	-0.18564549
173	0xbe0bd39d	-0.13654943
174	0xbdb6c0b8	-0.08923477
175	0x3d95a574	0.07306948
176	0xbc7e5440	-0.015523016
177	0x3c04b46b	0.008099656
178	0xbb4ed8f4	-0.003156242
179	0x3c7d535e	0.015461771
180	0x3d8aebfe	0.06783293
181	0xbdaedd8c	-0.085383505
182	0xbd17987b	-0.03701065
183	0xbd935efc	-0.07195851
184	0x3d00750c	0.031361625
185	0x3c44c66a	0.012010196
186	0x3e08371e	0.13302276
187	0xbd7d2190	-0.061799586
188	0x3cb61b40	0.02222979
189	0x3cc74760	0.024326026
190	0x3e29eb39	0.16593637
191	0x3e1e211e	0.1544232
192	0x3d0ad568	0.033894926
193	0xbcb66644	-0.02226556
194	0xbd4cd755	-0.050010044
195	0x3e49d833	0.1971138
196	0xbcf8f9ee	-0.030392613
197	0x3dab5694	0.08366123
198	0x3daaddaf	0.08343064
199	0xbd0a3fce	-0.033752255
200	0xbb233aea	-0.0024906942
201	0xbdb7f855	-0.089829125
202	0xbd307f76	-0.043090306
203	0xbcf8b6c6	-0.03036059
204	0xbc64e150	-0.013969734
205	0x3d900263	0.07031705
206	0x3cd3b653	0.025843775
207	0xbcaad772	-0.020854685
208	0xbe0e1c03	-0.13877873
209	0xbd786408	-0.060642272
210	0x3d763cb7	0.060116496
211	0x3d5179cf	0.051141556
212	0xbd8542b3	-0.065068625
213	0xbcec61df	-0.028855262
214	0xbce6f69e	-0.028193768
215	0x3d775544	0.06038405
216	0x3da5da4b	0.08098277
217	0x3b50c44a	0.0031855279
218	0xbce2ee18	-0.027701423
219	0xbd6c6b3b	-0.05771945
220	0xbd9bc4e2	-0.07605912
221	0x3cb962bb	0.022630086
222	0xbd65330d	-0.05595689
223	0xbd9b32b6	-0.07578032
224	0xbe06f964	-0.13181072
225	0xbbe54c3a	-0.0069976123
226	0xbd1563a6	-0.036471985
227	0x3bd81214	0.006593952
228	0x3ca68cd3	0.020330822
229	0xbd47a53e	-0.04874157
230	0xbda04834	-0.07826272
231	0xbd1c013e	-0.038087122
232	0xbd670296	-0.05639895
233	0x3b4c6e6a	0.0031193742
234	0xbb968bdd	-0.0045943097
235	0x3cfdfea0	0.031005204
236	0xbc407da9	-0.01174871
237	0xbd119d3f	-0.035550352
238	0xbd40f038	-0.04710409
239	0x3e19bd3e	0.15013596
240	0xbc728fc4	-0.014804784
241	0xbce46971	-0.02788231
242	0xbd904f81	-0.07046414
243	0xbc8f868c	-0.017520212
244	0xbd8ae68e	-0.06782256
245	0x3db2bbdc	0.087272376
246	0xbd9c5c34	-0.07634774
247	0x3ceeadd5	0.029135624
248	0xbdd2ea91	-0.10298646
249	0xbce934bf	-0.028467534
250	0x3cee4be0	0.029088914
251	0x3dcc5800	0.09977722
252	0x3dddb507	0.10825544
253	0xbd20c880	-0.03925371
254	0x3e02dd71	0.12779786
255	0x3da3eca1	0.08004118

features.12.bias f4 [32]
0	0xbdb761c1	-0.08954192
1	0xbc0c5c1e	-0.008566884
2	0xbc520c99	-0.012820386
3	0xbd479c04	-0.048732772
4	0xbb908ad5	-0.0044110813
5	0x3bc30eda	0.005952698
6	0x3c2fd106	0.010730987
7	0xbe133102	-0.14374164
8	0x3db68632	0.089123145
9	0xbbdb008b	-0.0066834143
10	0xbe9c20b4	-0.304937
11	0xbd27e7a4	-0.040992394
12	0x3e195780	0.14974785
13	0x3d42a584	0.04752113
14	0x3db1c40d	0.08679972
15	0xbdad73d7	-0.0846936
16	0xbe3890bd	-0.18023963
17	0xbd3fd2e8	-0.046831995
18	0x3e53ba26	0.20676479
19	0x3d94e402	0.072700515
20	0x3e02ec9d	0.12785573
21	0xbd15b819	-0.036552522
22	0x3caeda13	0.02134422
23	0xbe4b15ce	-0.19832537
24	0x3c41d0f0	0.0118296
25	0x3dcd1e5b	0.100155555
26	0xbd811730	-0.06303251
27	0xbc3e9ef6	-0.011634579
28	0xbe1f9c75	-0.15587027
29	0x3df6a85e	0.12043832
30	0xbc9da8a9	-0.019245462
31	0x3e0258bb	0.1272916
